…
cin_minmax:		[0.001, 0.05]
cout_minmax:		[0.05, 0.2]
nb_cluster:		8
nb_per_cluster:		32
noise_test:		0.0
start_epoch:		0
lr:		0.01
scheduler_patience:		2
scheduler_factor:		0.7
use_regularizers:		False
reg_factor:		0.5
reg_fmin:		0.01
reg_fmax:		0.1
use_augm:		False
use_readout_layer:		True
threshold:		1.0
device:		cuda

Device is set to cuda
checkpoint_dir: ./log/08-01-03-37/checkpoints/

Number of examples in train set: 8156
SHD does not have a validation split. Using test split.
Number of examples in test set: 2264

Created new spiking model:
 SNN(
  (snn): ModuleList(
    (0): RLIFLayer(
      (W): Linear(in_features=700, out_features=256, bias=False)
      (V): Linear(in_features=256, out_features=256, bias=False)
      (norm): BatchNorm1d(256, eps=1e-05, momentum=0.05, affine=True, track_running_stats=True)
      (drop): Dropout(p=0.1, inplace=False)
    )
    (1): RLIFLayer(
      (W): Linear(in_features=256, out_features=256, bias=False)
      (V): Linear(in_features=256, out_features=256, bias=False)
      (norm): BatchNorm1d(256, eps=1e-05, momentum=0.05, affine=True, track_running_stats=True)
      (drop): Dropout(p=0.1, inplace=False)
    )
    (2): ReadoutLayer(
      (W): Linear(in_features=256, out_features=20, bias=False)
      (norm): BatchNorm1d(20, eps=1e-05, momentum=0.05, affine=True, track_running_stats=True)
      (drop): Dropout(p=0.1, inplace=False)
    )
  )
)

Total number of trainable parameters is 382524

---------------Trial:1---------------


Created new spiking model:
 SNN(
  (snn): ModuleList(
    (0): RLIFLayer(
      (W): Linear(in_features=700, out_features=256, bias=False)
      (V): Linear(in_features=256, out_features=256, bias=False)
      (norm): BatchNorm1d(256, eps=1e-05, momentum=0.05, affine=True, track_running_stats=True)
      (drop): Dropout(p=0.1, inplace=False)
    )
    (1): RLIFLayer(
      (W): Linear(in_features=256, out_features=256, bias=False)
      (V): Linear(in_features=256, out_features=256, bias=False)
      (norm): BatchNorm1d(256, eps=1e-05, momentum=0.05, affine=True, track_running_stats=True)
      (drop): Dropout(p=0.1, inplace=False)
    )
    (2): ReadoutLayer(
      (W): Linear(in_features=256, out_features=20, bias=False)
      (norm): BatchNorm1d(20, eps=1e-05, momentum=0.05, affine=True, track_running_stats=True)
      (drop): Dropout(p=0.1, inplace=False)
    )
  )
)

Total number of trainable parameters is 382524

------ Begin training ------

Epoch 1: train loss=3.1875, acc=0.0475, fr=0.0045, lr=0.0100, time=28.940751, cin=0.000921, 0.001125, cout=0.008449, 0.048766
Epoch 1: valid loss=3.0281, acc=0.0455, fr=0.0019, mask=0.8750, time=05.468144
…
